Computer Vision Assignments/hw4/Neba_Funiba_hw4/code/cifar_net.pth (torch, 251604 bytes, 10 tensors)

conv1.weight f4 [6, 3, 5, 5]
0	0xbc27c480	-0.01023972
1	0xbdd392fe	-0.10330771
2	0x3e562682	0.20913127
3	0x3dcc49f4	0.09975043
4	0x3d678e87	0.05653241
5	0xbe751038	-0.23931968
6	0xbcbbb730	-0.022914499
7	0x3e834ba5	0.2564365
8	0x3d9d0678	0.076672494
9	0xbe2eb66e	-0.17061779
10	0xbea637e0	-0.32464504
11	0x3e028b98	0.12748563
12	0x3e79b6ab	0.24386089
13	0xbe6a2456	-0.22865424
14	0xbeb74fc2	-0.35803038
15	0xbdd0abc4	-0.10189012
16	0x3e1f8f15	0.15581925
17	0x3e516960	0.20450354
18	0xbed950a1	-0.42444327
19	0xbd6ac216	-0.057314
20	0x3db5c643	0.08875706
21	0x3cb84d21	0.022497715
22	0xbe5ac34d	-0.21363564
23	0xbe48fb64	-0.19627148
24	0x3e62764b	0.22115438
25	0x3e556a90	0.20841432
26	0x3d434d3f	0.04768109
27	0x3e7f7344	0.24946314
28	0xbd3ef5cf	-0.04662114
29	0xbdf604e8	-0.120126545
30	0xbd5653df	-0.05232608
31	0x3c888695	0.016665736
32	0x3eb79a4f	0.35859916
33	0x3d8bbf27	0.06823569
34	0xbe9c4fb3	-0.30529556
35	0xbe319db7	-0.1734532
36	0x3e5e3383	0.21699338
37	0x3ef4a097	0.4777877
38	0xbe07c743	-0.13259606
39	0xbeb93fd8	-0.3618152
40	0xbd70f3f8	-0.058826417
41	0x3e661db1	0.22472264
42	0x3e3bad6a	0.18327871
43	0xbeb8489f	-0.35992905
44	0xbd9c6884	-0.07637122
45	0x3ea853f6	0.32876557
46	0x3e59d562	0.21272805
47	0x3d5e2426	0.054233693
48	0xbe317f24	-0.17333657
49	0x3e6912b7	0.22761045
50	0xbdf8f155	-0.121554054
51	0xbe1391f3	-0.14411144
52	0x3d2b5873	0.0418324
53	0x3e04af79	0.12957563
54	0xbd90be36	-0.0706753
55	0xbda5a752	-0.080885544
56	0xbe32a2a1	-0.1744485
57	0x3dff1cf3	0.124566935
58	0x3db42ede	0.08798002
59	0xbe728291	-0.2368262
60	0xbe6875fa	-0.22701254
61	0x3d0c4497	0.0342451
62	0x3eb4ea2a	0.35334903
63	0xbe3d3833	-0.1847847
64	0xbe208510	-0.1567576
65	0xbe41322a	-0.18866792
66	0x3e61f098	0.22064435
67	0x3e08abf5	0.13346846
68	0xbe9d578e	-0.3073086
69	0x3d98a0a9	0.074525185
70	0x3dd31c0d	0.10308085
71	0x3d88fe9b	0.06689187
72	0xbe327a15	-0.17429383
73	0xbe22c5cc	-0.15895766
74	0x3e657a32	0.22409895
75	0xbc0a33f4	-0.008435238
76	0xbdc5883e	-0.09645127
77	0x3e117314	0.14204055
78	0xbd7a2c14	-0.061077192
79	0xbd650eec	-0.055922434
80	0xbe449d40	-0.19200611
81	0xbe59d4f6	-0.21272644
82	0xbe5bfeb2	-0.21483877
83	0xbea10bd9	-0.31454352
84	0xbd468b53	-0.048472714
85	0xbe8fdae6	-0.28096694
86	0xbdf51b5a	-0.119681075
87	0xbe814714	-0.2524954
88	0xbe1bca81	-0.15213968
89	0xbea93560	-0.33048534
90	0xbe925c02	-0.2858582
91	0xbe825b70	-0.25460386
92	0xbe0800a4	-0.13281494
93	0xbd35c053	-0.044372868
94	0xbe3eec5e	-0.18644854
95	0xbe20d530	-0.15706325
96	0xbd4562df	-0.048189994
97	0xbe668853	-0.22512941
98	0xbc9a20b1	-0.018814417
99	0xbe29a1d6	-0.16565642
100	0xbe091daa	-0.13390222
101	0x3da8c673	0.08240976
102	0x3e4106b5	0.18850215
103	0x3e5d8e84	0.21636397
104	0x3ce48515	0.02789549
105	0x3e1b0215	0.15137513
106	0xbd184220	-0.037172437
107	0x3d0fbe18	0.035093397
108	0x3d9c4125	0.07629613
109	0xbdf202bb	-0.11816927
110	0xbe3e42a8	-0.18580115
111	0xbc9083bf	-0.017640946
112	0xbe05d4a7	-0.13069402
113	0xbe2ee50a	-0.17079559
114	0xbd89e3fe	-0.06732939
115	0xbe81f69b	-0.25383458
116	0xbdef7e20	-0.11693978
117	0xbddf573a	-0.10905309
118	0xbc0b5930	-0.008505151
119	0xbd422c68	-0.04740563
120	0xbe7e4624	-0.24831444
121	0x3dc7bac9	0.09752423
122	0xbd6a10e5	-0.057145018
123	0xbe27675b	-0.1634802
124	0xbe48555f	-0.19563816
125	0x3e2360ee	0.15954944
126	0x3e0565e4	0.1302715
127	0x3ea6ec99	0.32602385
128	0x3ec5d75b	0.38640866
129	0x3e8fb8f4	0.28070796
130	0x3e8f1a88	0.2794993
131	0x3ea9a4f1	0.33133653
132	0x3e150368	0.1455208
133	0x3e801e2a	0.25023013
134	0x3d9fc180	0.07800579
135	0x3e5c4e75	0.21514304
136	0x3e236176	0.15955147
137	0x3e9dda3d	0.30830565
138	0x3dcc310e	0.09970294
139	0x3dbfe6a8	0.09370166
140	0x3d8eed37	0.06978839
141	0x3d7fa7ae	0.06241577
142	0x3e5c05a4	0.21486527
143	0x3e9cec44	0.30649006
144	0x3e0205da	0.12697545
145	0x3d631a5b	0.055445056
146	0x3e691a82	0.22764018
147	0x3cfd1b93	0.030896937
148	0x3e32ba35	0.17453845
149	0xbb350ebb	-0.0027627188
150	0x3e4e9aa5	0.2017618
151	0x3e820e1e	0.25401396
152	0x3e4bd0e2	0.19903901
153	0x3de2a76f	0.11067092
154	0x3ea64bc3	0.32479677
155	0x3e0df1fa	0.13861838
156	0x3d2e0ea5	0.042494435
157	0x3d81e9bc	0.063434094
158	0x3e0bc2a8	0.13648474
159	0x3ea016fe	0.31267542
160	0x3d91147b	0.070839845
161	0xbe07620d	-0.13220997
162	0xbbf022fc	-0.007328389
163	0x3dc4ef76	0.09615986
164	0x3e913070	0.28357267
165	0xbc68bafa	-0.014204735
166	0xbe6daffb	-0.23211662
167	0xbd43b00b	-0.04777531
168	0x3d11a951	0.035561863
169	0x3e379938	0.17929542
170	0xbe1636d8	-0.14669359
171	0xbe906285	-0.28200164
172	0xbd9637bd	-0.0733485
173	0xbdb252c1	-0.0870719
174	0x39156970	0.00014249026
175	0xbdc106f4	-0.09425154
176	0xbe83985e	-0.25702184
177	0xbe8e3a71	-0.27778962
178	0xbe708742	-0.23489097
179	0xbda11d64	-0.07866934
180	0xbe5852ba	-0.21125308
181	0xbe9751dd	-0.29554644
182	0xbe98d998	-0.2985351
183	0xbe2196e1	-0.15780212
184	0x3cfd126d	0.030892575
185	0xbe13a2a4	-0.14417511
186	0xbed47ffa	-0.41503888
187	0xbe6ea14f	-0.23303722
188	0xbd8c688e	-0.0685588
189	0x3da323be	0.07965802
190	0xbd994db2	-0.07485522
191	0xbea7875c	-0.32720459
192	0xbe8d2920	-0.27570438
193	0xbd11558b	-0.03548197
194	0x3d9f2c69	0.077721424
195	0x3c97e9d3	0.018544113
196	0xbd817bef	-0.063224666
197	0xbdd9fded	-0.106441356
198	0x3e43333a	0.1906251
199	0x3e8fb4da	0.28067666
200	0xbc88fcfd	-0.016722197
201	0xbe0153ec	-0.1262967
202	0xbcca463d	-0.024691695
203	0xbc7bca8e	-0.015368117
204	0xbdbc9fd8	-0.09210175
205	0x3d1d5066	0.038406752
206	0xbe2f3451	-0.17109801
207	0xbe5a677b	-0.21328537
208	0xbdd5404a	-0.10412653
209	0x3e14104d	0.14459343
210	0xbbb105fd	-0.005402325
211	0xbe07c410	-0.13258386
212	0xbca014a7	-0.019541098
213	0x3dfe4165	0.12414817
214	0x3e6972db	0.2279772
215	0x3c1e1a05	0.009649758
216	0xbe253e59	-0.16137065
217	0x3d5e3f09	0.054259334
218	0x3e91ceaf	0.28478
219	0x3e14a249	0.14515032
220	0x3d48e91a	0.049050428
221	0xba988075	-0.0011634963
222	0x3e32f383	0.17475705
223	0x3e9c24d6	0.30496854
224	0x3e7d9a8b	0.24765985
225	0x3edba0de	0.4289617
226	0x3ed282e0	0.41115475
227	0x3e849f80	0.2590294
228	0x3eb80e50	0.3594842
229	0x3e2ff1e8	0.17182124
230	0x3e7fa5df	0.24965619
231	0x3f0f2f89	0.5593191
232	0x3f3dae1f	0.7409381
233	0x3ee1912a	0.44056064
234	0x3e7d61a0	0.24744272
235	0xbe658a49	-0.22416033
236	0xbceaa348	-0.028642312
237	0xbe206eff	-0.15667342
238	0x3d8fe256	0.07025592
239	0x3de2e487	0.110787444
240	0xbf049762	-0.5179349
241	0xbec2ceab	-0.380483
242	0xbf2829e3	-0.65688914
243	0xbebb922a	-0.36634952
244	0xbe8c1f9b	-0.27367863
245	0xbdb2c85a	-0.0872962
246	0xbe2986f7	-0.16555391
247	0xbdab9915	-0.083788075
248	0xbb0dbbca	-0.0021626824
249	0xbe9107f1	-0.2832637
250	0x3d735d07	0.05941489
251	0xbd8d0c55	-0.06887118
252	0xbe87e1d0	-0.2653947
253	0xbe3f45be	-0.18678948
254	0xbe526711	-0.20547129
255	0x3dbe3fa1	0.0928948

conv1.bias f4 [6]
0	0xbda35f04	-0.07977107
1	0x3caa5959	0.020794557
2	0xbeb7d3f6	-0.359039
3	0xbed8d0d3	-0.4234682
4	0xbbca585f	-0.0061750854
5	0xbe615c25	-0.22007807

conv2.weight f4 [16, 6, 5, 5]
0	0x3d81b3a7	0.06333094
1	0x3c8d2e33	0.017233944
2	0x3db94e6a	0.090481594
3	0xbd32c60a	-0.043645896
4	0xbd357777	-0.044303384
5	0x3e0deda6	0.13860187
6	0x3d85e280	0.06537342
7	0x3e0ed0c4	0.13946825
8	0x3e1ac47a	0.15114012
9	0xbcba4f32	-0.022742841
10	0x3d06f610	0.032949507
11	0x3d27a92b	0.040932816
12	0x3dcc676d	0.099806644
13	0x3c026b72	0.007960187
14	0x3cc2d79d	0.023784453
15	0x3cd98054	0.02655045
16	0xbe02ed9b	-0.12785952
17	0x3d41d053	0.047317814
18	0xbcc306f2	-0.023807023
19	0x3c2825a8	0.010262884
20	0x3d77fa2a	0.06054131
21	0xbcd6981c	-0.026195578
22	0x3e1a1691	0.15047671
23	0x3d838ea6	0.064236924
24	0xbd28096e	-0.041024618
25	0x3cf04fdf	0.02933496
26	0xbbd81421	-0.0065941964
27	0xbbd4cc24	-0.006494062
28	0x3db70bfe	0.08937834
29	0x3d8d7709	0.0690747
30	0xbe0740f0	-0.13208365
31	0xbd9bae64	-0.07601622
32	0xbe57124c	-0.21003073
33	0xbe44240b	-0.19154374
34	0xbdc1066c	-0.09425053
35	0xbddfc8af	-0.10926949
36	0xbd81cbb0	-0.063376784
37	0xbdc5a9bc	-0.09651515
38	0xba902526	-0.0010997399
39	0x3d7fe880	0.06247759
40	0xbd2ba4a5	-0.041905064
41	0x3da6e1d8	0.08148545
42	0x3e3afbc4	0.18260103
43	0x3e0857e5	0.13314779
44	0x3e31e5b6	0.17372784
45	0xbe02aa6e	-0.12760326
46	0xbda88fca	-0.082305506
47	0xbd4ae9f2	-0.049539514
48	0xbdb1b50c	-0.0867711
49	0x3cb191e6	0.021676015
50	0xbda3ce34	-0.079983145
51	0xbdd24eb6	-0.10268919
52	0x3d3fba02	0.04680825
53	0x3d8abded	0.06774507
54	0x3e1f15bf	0.15535639
55	0x3d2c8180	0.04211569
56	0x3d43f59b	0.04784165
57	0x3dc2ce64	0.09512022
58	0x3db1056c	0.08643612
59	0x3dd579f0	0.10423648
60	0xbcd4689e	-0.025928792
61	0x3c46ba55	0.012129386
62	0xbdb8af78	-0.09017843
63	0xbdaf881b	-0.08570882
64	0x3d064871	0.03278393
65	0xbd3a11d8	-0.045427173
66	0xbe0a80e7	-0.13525735
67	0xbe1c9ad6	-0.1529344
68	0xbdcc7fd3	-0.09985318
69	0x3d42126e	0.047380857
70	0xbdf85d1f	-0.121271364
71	0xbdc36390	-0.095404744
72	0xbd8a8ec4	-0.06765512
73	0xbdfef67a	-0.124493554
74	0x3d7e773f	0.06212544
75	0x3d90d8f4	0.070726305
76	0x3d9a502d	0.075348236
77	0x3d6fe582	0.058568485
78	0x3d87c1eb	0.06628784
79	0xbbe9a254	-0.0071299467
80	0x3e16f17b	0.14740555
81	0x3e18cfec	0.14923066
82	0x3e1ad11f	0.15118836
83	0x3e2ec451	0.17067076
84	0x3d9515a5	0.07279519
85	0xbc99768a	-0.018733282
86	0x3d2288b3	0.039681148
87	0x3d5306de	0.05152022
88	0x3dc4d391	0.096106656
89	0xbde9d392	-0.11417307
90	0xbdc9f3dd	-0.09860966
91	0xbd63acaa	-0.055584587
92	0xbdc1dc31	-0.09465826
93	0xbdcf8ea2	-0.10134627
94	0xbe015e11	-0.1263354
95	0xbd09ff4b	-0.033690732
96	0xbd69a030	-0.057037532
97	0xbd88bbe2	-0.06676461
98	0xbd693c82	-0.05694247
99	0xbe018e26	-0.12651882
100	0x3d34d338	0.044146746
101	0xbd3143e9	-0.043277655
102	0xbdcdbbb8	-0.1004557
103	0xbd368339	-0.044558737
104	0xbcb1b663	-0.021693414
105	0x3dcc4c5f	0.09975504
106	0x3e2953f8	0.16535938
107	0x3e999ae8	0.30000997
108	0x3e3a4be3	0.18193011
109	0x3e6be40d	0.23036213
110	0x3e3a3a07	0.18186198
111	0x3e53cfa8	0.20684683
112	0x3e3f3c1d	0.18675275
113	0x3deecff3	0.11660757
114	0x3deeb279	0.11655135
115	0x3b181696	0.0023206822
116	0xbdcc6b9b	-0.099814616
117	0xbd2444dd	-0.040104736
118	0xbdceff64	-0.10107306
119	0xbe0e932f	-0.13923334
120	0xbde03ae9	-0.10948736
121	0xbe1b5db3	-0.15172462
122	0xbdfb0dca	-0.122584894
123	0xbdc4c3f2	-0.09607686
124	0xbe3b6466	-0.18300018
125	0x3cf9bd0c	0.030485652
126	0x3d7bd98f	0.061486777
127	0x3d151782	0.036399372
128	0xbb65f0bf	-0.0035086123
129	0xbd1236b0	-0.035696685
130	0x3ca69b1e	0.020337638
131	0x3cac114d	0.021004343
132	0xbcca3f0e	-0.02468827
133	0x3e0bdee1	0.1365924
134	0x3d363db3	0.044492435
135	0xbb2681a1	-0.0025406855
136	0xbd34dd70	-0.04415649
137	0x3c74f110	0.014950052
138	0x3dcaa7a7	0.098952584
139	0x3df9c28a	0.121953085
140	0xbd0438b9	-0.032280657
141	0xbe317f26	-0.1733366
142	0xbda1f488	-0.07907969
143	0x3d806e34	0.062710196
144	0xbd97bcc1	-0.07409049
145	0xbdf04ef3	-0.11733808
146	0xbe24cb7a	-0.16093245
147	0xbd8d7c23	-0.06908443
148	0xbcd6be01	-0.026213648
149	0xbdd56486	-0.10419564
150	0xbe07c557	-0.13258873
151	0xbe372c5f	-0.1788802
152	0xbe04d88e	-0.12973234
153	0xbdb5345e	-0.08847879
154	0x3d6f0c34	0.058361247
155	0xbdc1f6e5	-0.094709195
156	0xbd2c2ce8	-0.042035013
157	0xbdae008e	-0.084961995
158	0xbc99d2cb	-0.018777272
159	0x3cca1088	0.024666086
160	0x3d27832a	0.040896572
161	0xbdd43f92	-0.103636876
162	0x3b9c6e88	0.0047739185
163	0x3d56cad1	0.052439515
164	0x3cc36c8d	0.023855472
165	0xbba435e3	-0.0050113066
166	0x3d0f2b8b	0.034953635
167	0x3d5b0285	0.0534692
168	0x3cb843c1	0.022493245
169	0xbccc920c	-0.024971984
170	0xbd499fa6	-0.04922452
171	0xbc1b8baa	-0.009493748
172	0x3d655593	0.055989813
173	0x3d55bf29	0.052184258
174	0xbc2292a8	-0.009922661
175	0x3d7352bd	0.059405077
176	0x3bc43b8e	0.005988545
177	0xbd4fd15a	-0.050736763
178	0xbdcbcc7b	-0.09951111
179	0xbc877f2b	-0.01654013
180	0xbbec48a5	-0.0072108083
181	0x3c97e4c2	0.018541697
182	0x3ced31f2	0.02895448
183	0xbc8055f0	-0.015665978
184	0x3c5cd3d4	0.013478238
185	0xbd8bfa0a	-0.068348005
186	0xbe14ac30	-0.1451881
187	0xbdc91ddb	-0.098201476
188	0xbb207bfb	-0.002448796
189	0x3cefb125	0.029259274
190	0xbe249bb8	-0.16075027
191	0xbe0e6f1e	-0.13909575
192	0xbdcb8935	-0.099382795
193	0xbd1c573b	-0.038169127
194	0x3d72db12	0.059290953
195	0xbd786bd8	-0.060649723
196	0xbda91d95	-0.082575954
197	0xbdf33373	-0.118750475
198	0xbb81c73a	-0.0039605172
199	0xbc89cb1f	-0.016820488
200	0xbdea26f1	-0.11433209
201	0xbde1860f	-0.11011898
202	0xbe49d650	-0.1971066
203	0xbe0d50c0	-0.13800335
204	0xbe36aa8a	-0.17838493
205	0xbe0d6da7	-0.1381136
206	0xbe584af9	-0.2112235
207	0xbe20142c	-0.15632695
208	0xbe137187	-0.14398776
209	0xbe4ee0a1	-0.20202877
210	0xbdd1a15e	-0.102358565
211	0xbe19e380	-0.1502819
212	0xbe11f476	-0.1425341
213	0xbe0b2eda	-0.13592091
214	0xbe01cf74	-0.12676793
215	0x3d3c1c20	0.04592526
216	0xbe0c2613	-0.13686399
217	0xbe3edd9d	-0.18639226
218	0xbe5a1202	-0.21295932
219	0xbdc5932e	-0.09647213
220	0xbd9d7ca2	-0.076897874
221	0xbe3a461a	-0.18190804
222	0xbe24b7f7	-0.16085802
223	0xbe28fee4	-0.16503483
224	0xbd66fe29	-0.05639473
225	0xbe0ce1e5	-0.13758047
226	0xbe368352	-0.17823532
227	0xbd223d4d	-0.039609242
228	0xbd9487dd	-0.07252476
229	0x3ccb012c	0.024780832
230	0xbdc99552	-0.09842934
231	0xbdd076eb	-0.10178932
232	0x3d3eccc3	0.046581995
233	0x3d73e529	0.059544716
234	0xbda69b41	-0.08135081
235	0x3cec9ef2	0.028884385
236	0x3c413b7a	0.0117939655
237	0xbc947560	-0.018122375
238	0xbd75d8b7	-0.06002113
239	0x3c124cd1	0.008929447
240	0xbdbf4168	-0.09338647
241	0xbe1e16f9	-0.15438451
242	0xbe0483ef	-0.12940954
243	0xbdc121a0	-0.094302416
244	0xbc43d634	-0.0119529255
245	0xbdd8696e	-0.10566984
246	0xbdbed87a	-0.093186334
247	0xbdaafc09	-0.08348853
248	0xbd64fe44	-0.05590655
249	0xbd951f75	-0.072813906
250	0x3e92fd17	0.28708717
251	0x3e11f687	0.14254199
252	0x3dbb09cc	0.09132728
253	0x3da6a03a	0.081360295
254	0x3d54300c	0.051803634
255	0x3d2bf5ed	0.04198258

conv2.bias f4 [16]
0	0xbefc7375	-0.49306837
1	0x3ed1fd39	0.41013506
2	0xbe707ef3	-0.23485927
3	0xbd319cfb	-0.0433626
4	0xbe1615c2	-0.14656737
5	0xbdbc80ca	-0.09204252
6	0x3d095444	0.033527628
7	0xbe2a41c3	-0.16626649
8	0xbe886d30	-0.26645803
9	0x3d1234bf	0.035694834
10	0x3ef6edbd	0.48228255
11	0x3fac5c3e	1.346565
12	0xbe9a2f30	-0.30114126
13	0xbebe2624	-0.37138474
14	0x3e391501	0.18074419
15	0xbdcc7fff	-0.09985351

fc1.weight f4 [120, 400]
0	0xbd1201b1	-0.035646144
1	0xbdcfc232	-0.10144462
2	0xbd8e10fa	-0.06936832
3	0xbdfc5a52	-0.12321915
4	0xbdbe1438	-0.092812
5	0x3d034eaa	0.03205744
6	0xbb2d5fd2	-0.0026454818
7	0x3cdaf775	0.026729325
8	0xbd1770a4	-0.036972657
9	0xbd074153	-0.033021282
10	0x3d90db3b	0.07073065
11	0x3d882288	0.06647211
12	0x3db3ef25	0.087858476
13	0x3d265ee1	0.040617827
14	0xbc3613fb	-0.011113162
15	0x3d28a1ec	0.041170046
16	0xbcb52403	-0.022111898
17	0x3d489a37	0.048975196
18	0xbc557ef8	-0.01303076
19	0xbda18d63	-0.078882955
20	0x3cc41272	0.023934577
21	0x3b150369	0.0022737628
22	0xbd10ee65	-0.0353836
23	0xbd30baf2	-0.043147035
24	0xbd387428	-0.04503265
25	0xbd1aad84	-0.037763134
26	0xbd826920	-0.06367707
27	0x3af58f90	0.0018734802
28	0xbb564822	-0.0032696803
29	0xbc85e7a7	-0.016345812
30	0x3d4e44b2	0.05035848
31	0xbd1aee3e	-0.03782486
32	0xbcedfc59	-0.029050993
33	0xbcc481a2	-0.023987595
34	0xbd604fb4	-0.05476351
35	0x3c67812a	0.014129916
36	0xbc48f822	-0.012266191
37	0xbd4fb000	-0.050704956
38	0xbd28ca60	-0.041208625
39	0x3cfdce16	0.030982058
40	0xbd10705c	-0.035263404
41	0xbc6f139c	-0.014592078
42	0xbd5bd7d5	-0.05367263
43	0xbd723738	-0.059134692
44	0xbc1c4be3	-0.009539577
45	0xbd888445	-0.066658534
46	0xbc41b490	-0.011822835
47	0xbd23d154	-0.039994553
48	0xbc95ba4e	-0.018277314
49	0x3d44b1ab	0.048021
50	0xbda0ca83	-0.07851126
51	0xbd9e4608	-0.07728201
52	0xbd11bbe4	-0.035579577
53	0xbcb38168	-0.021912292
54	0xbd9fc0c8	-0.07800442
55	0x3c1e6720	0.009668142
56	0x3ce97e4d	0.028502608
57	0x3cec4fa6	0.028846573
58	0xbce87bc1	-0.028379323
59	0xbbe99951	-0.0071288724
60	0xbce4fda6	-0.02795298
61	0xbc3d893f	-0.011568367
62	0x3d87d6cd	0.06632767
63	0x3c7642dc	0.015030589
64	0x3d3c1572	0.04591889
65	0xbdfeb34d	-0.12436543
66	0x3c83097c	0.015995733
67	0x3d72a988	0.05924371
68	0x3c5fb969	0.013655045
69	0x3cb55668	0.022135928
70	0xbd9e3d97	-0.07726591
71	0xbcf776ee	-0.030208077
72	0x3d2a455f	0.041570064
73	0x3dbf2059	0.09332342
74	0x3d416e7f	0.047224518
75	0x3cb625f2	0.02223489
76	0xbd2d7303	-0.04234601
77	0x3cb0f816	0.021602672
78	0x3a845055	0.0010094742
79	0x3d693c3d	0.056942213
80	0xbd82e11a	-0.06390591
81	0xbcce6055	-0.025192419
82	0x3c8b3e0a	0.016997356
83	0xbd936027	-0.07196074
84	0x3bb2655f	0.0054442133
85	0xbd8eab2a	-0.06966241
86	0xbd063c54	-0.032772377
87	0x3d1fcde3	0.03901471
88	0xbd864921	-0.06556917
89	0xbbe5c59e	-0.007012083
90	0xbd4a0854	-0.04932435
91	0x3c42f7cf	0.0118999025
92	0xbcd4ab9c	-0.025960736
93	0x3c442b82	0.011973264
94	0x3c3505d8	0.011048757
95	0x3d924915	0.071428455
96	0x3d47131a	0.0486022
97	0x3dcb283e	0.09919785
98	0x3d294e4b	0.04133443
99	0xbcb9c45b	-0.022676637
100	0xbd32411e	-0.04351913
101	0xbda55e51	-0.0807463
102	0xbd089f87	-0.033355262
103	0xbd3302aa	-0.043703713
104	0xbe14026b	-0.14454047
105	0x3ca12bc6	0.019674193
106	0x3bf4ce15	0.007470856
107	0x3d971ace	0.073781595
108	0xbbc0f89e	-0.0058890125
109	0xbda0ee06	-0.07857899
110	0x3c61bf32	0.013778495
111	0x3d8bd041	0.06826831
112	0x3d359a37	0.044336524
113	0xbc87cf36	-0.016578298
114	0xbdc4ab46	-0.0960298
115	0xbda1036e	-0.07861982
116	0x3d104846	0.035225175
117	0x3cea4c33	0.028600788
118	0x3d552118	0.052033514
119	0xbdcd0d32	-0.100122824
120	0xbe00fad2	-0.1259568
121	0xbd268229	-0.040651474
122	0xbc941aef	-0.01807925
123	0xbdb6546c	-0.08902821
124	0xbdf0d10e	-0.11758624
125	0xbb53be02	-0.0032309298
126	0xbd1c1997	-0.038110342
127	0x3cbb91ac	0.02289661
128	0x3b2bf385	0.0026237678
129	0x3d70de48	0.058805734
130	0x3d6ad177	0.057328667
131	0xbc53c695	-0.012925764
132	0xbd1a856f	-0.03772491
133	0x3c47dedb	0.012199129
134	0x3c11251e	0.008858947
135	0x3cd2267e	0.02565312
136	0x3db9243b	0.090401135
137	0x3d3c87a8	0.04602781
138	0x3b2579e5	0.0025249657
139	0x3d7034c3	0.058644067
140	0x3d29b3c4	0.041431203
141	0xbcb18d7b	-0.021673908
142	0x3d47ed23	0.048810136
143	0x3d61e2ef	0.05514806
144	0xbca13d27	-0.01968248
145	0xbd255a0d	-0.040369082
146	0xb92c7f70	-0.00016450672
147	0xbd9412b4	-0.0723013
148	0x3d17a686	0.037024044
149	0x3ca83b08	0.02053596
150	0xbcd2d604	-0.025736816
151	0xbc860072	-0.016357634
152	0xbd1499d1	-0.036279503
153	0xbd3e0768	-0.046393782
154	0xbca3ee24	-0.020011015
155	0x3cb8845c	0.022524051
156	0xbcdf88e4	-0.027286954
157	0x3d9d62ea	0.07684882
158	0x3d8f91df	0.070102446
159	0xbca93819	-0.020656632
160	0x3c514a41	0.012774051
161	0x3c4094ad	0.011754197
162	0x3da0b9ab	0.07847913
163	0x3cd61c99	0.026136683
164	0xbd76c976	-0.060250722
165	0xbbe709c7	-0.007050726
166	0x3d8d0427	0.068855576
167	0x3d791845	0.06081416
168	0x3cfb8357	0.030702276
169	0xbb9676e3	-0.004591809
170	0xbbd9247a	-0.006626663
171	0x3d398b4f	0.04529887
172	0xbcd60160	-0.026123703
173	0xbc0c0bb6	-0.008547714
174	0xbdb80efe	-0.089872345
175	0xbc199b90	-0.009375468
176	0xbd853fca	-0.065063074
177	0xbc846e90	-0.016166002
178	0xbcf750b1	-0.030189844
179	0x3d38899f	0.04505312
180	0xbd95ae51	-0.07308639
181	0xbcd30f8f	-0.025764255
182	0x3d714d93	0.05891187
183	0x3dcb7dfb	0.09936138
184	0x3cb70702	0.022342209
185	0xbd64f1b7	-0.05589458
186	0xbcb97e27	-0.022643162
187	0x3d4fe12a	0.050751843
188	0x3c69d07e	0.0142709
189	0x3d0ffed6	0.03515514
190	0xbd9020e0	-0.070375204
191	0xbd3fe1eb	-0.04684631
192	0x3cc73bbf	0.024320481
193	0x3d2118d1	0.039330307
194	0xbdab8f58	-0.0837695
195	0xbc9ba782	-0.019000772
196	0xbd9c998f	-0.076464765
197	0xbd9df991	-0.07713617
198	0xbdc6ceea	-0.097074345
199	0xbdd13e88	-0.10217005
200	0x3d6941d9	0.056947563
201	0x3cbeae2e	0.023276415
202	0x3cdc45de	0.026888784
203	0xbd088f5b	-0.03333984
204	0xbdaa2eb6	-0.08309691
205	0x3ca45f6b	0.02006503
206	0x3d718d69	0.05897275
207	0x3d54b3bc	0.05192922
208	0x3cbd599a	0.023114014
209	0xbb9cbf48	-0.0047835447
210	0x3d53037e	0.051517002
211	0x3d019799	0.031638715
212	0x3d11999a	0.035546876
213	0xbbb6c536	-0.0055777086
214	0xbd86bcd0	-0.06578982
215	0xbd573de5	-0.05254926
216	0xbce93125	-0.028465817
217	0x3c8f8f5c	0.017524414
218	0xbd3ae391	-0.04562718
219	0xbd67aeaf	-0.056563076
220	0xbe080d01	-0.1328621
221	0xbdb6577a	-0.089034036
222	0xbd04efbe	-0.0324552
223	0xbc6d22bf	-0.014473616
224	0x3cb2262e	0.021746721
225	0xbd0c89ba	-0.034311034
226	0x3d746979	0.0596709
227	0x3d85b3b5	0.06528417
228	0x3c2144cf	0.009843065
229	0x3d4dfb9e	0.05028879
230	0xbc85db9a	-0.016340066
231	0xbd237773	-0.039908838
232	0x3d2c3439	0.04204199
233	0xbc0e46df	-0.008683889
234	0xba6c1d7d	-0.00090070796
235	0x3d64008f	0.055664595
236	0x3c1cd550	0.009572342
237	0xbbca2221	-0.0061686193
238	0xbc79dcfc	-0.015250441
239	0x3cd1a907	0.025593294
240	0x3de97e8a	0.114010885
241	0x3cf0294c	0.029316567
242	0x3ccf10e7	0.025276614
243	0x3c18b873	0.00932132
244	0x3cfd518e	0.030922677
245	0x3d1c11ab	0.038102787
246	0xb9c27e87	-0.00037096834
247	0xbc9f4eef	-0.019446818
248	0xbce6c795	-0.02817134
249	0xbcc728ce	-0.02431145
250	0x3da159ae	0.07878433
251	0xbb8d98f0	-0.00432121
252	0x3d4ea00e	0.05044561
253	0x3d11eb91	0.035625044
254	0x3d728fd0	0.05921918
255	0x3d293b08	0.041316062

fc1.bias f4 [120]
0	0x3da30988	0.07960802
1	0x3ced8aa0	0.028996766
2	0xbdbe7c83	-0.093010925
3	0x3c5d69a3	0.013513955
4	0xbd1beebb	-0.038069468
5	0x3e0800c5	0.13281544
6	0x3c9981b1	0.0187386
7	0x3c684261	0.014175982
8	0xbdad5612	-0.08463682
9	0xbe2ceda9	-0.16887535
10	0x3dade868	0.084915936
11	0x3db241c6	0.087039515
12	0xbd04db83	-0.032435905
13	0x3d18f13d	0.037339438
14	0x3e0c02c5	0.13672931
15	0xbce40c35	-0.027837852
16	0x3d13c415	0.03607567
17	0x3d3c4680	0.04596567
18	0xbcd50fc0	-0.026008487
19	0xbb8cbe73	-0.0042951643
20	0x3de3a8d4	0.11116186
21	0xbcaa530b	-0.020791551
22	0x3d4155c5	0.047200937
23	0x3cb6b0ab	0.022301039
24	0x3e6ca870	0.23111129
25	0x3cb123a5	0.021623442
26	0x3d019b66	0.03164234
27	0xbd7c252f	-0.0615589
28	0x3d3b7490	0.04576546
29	0x3d17ce64	0.037062064
30	0x3d21c2d9	0.03949246
31	0x3dd1684b	0.102249704
32	0xbc956293	-0.01823548
33	0xbd8606d3	-0.0654427
34	0x3cf0aea0	0.029380143
35	0x3ce17a43	0.02752412
36	0x3d124a49	0.035715375
37	0x3d8716c9	0.06596143
38	0xbc02cfe7	-0.007984138
39	0xbd325206	-0.043535255
40	0xbe019022	-0.12652639
41	0xbaf8acdb	-0.0018972413
42	0xbcb83a31	-0.022488685
43	0x3bfebc18	0.0077738874
44	0xbd712ad3	-0.05887873
45	0xbbd2615d	-0.006420298
46	0xbc970a1f	-0.018437443
47	0x3d5ec5b2	0.054387756
48	0xbd0c9f15	-0.0343314
49	0xbd20c90b	-0.03925423
50	0x3cb1ebb4	0.021718837
51	0xbb2b6850	-0.0026154704
52	0xbd384ec4	-0.04499699
53	0x3da78b36	0.08180849
54	0x3cbc3378	0.022973761
55	0x3d75f2ff	0.060046192
56	0x3c803bde	0.015653547
57	0x3d8fd5af	0.07023179
58	0x3dcc97b8	0.099898756
59	0xbd2a4350	-0.0415681
60	0x3b95fbbc	0.004577128
61	0x3d57c23e	0.05267548
62	0xbd17e8aa	-0.03708712
63	0xbdbaa2c0	-0.09113073
64	0xbcf5a5a6	-0.029986214
65	0x3ce01b5e	0.0273568
66	0x3c89a189	0.016800659
67	0x3da5d742	0.08097698
68	0xbcf19f9d	-0.029495055
69	0x3d0151bd	0.031572092
70	0x3cbcc8a9	0.023044901
71	0x3c42eeb8	0.011897735
72	0xbc2b2c15	-0.010447522
73	0x3d155103	0.036454212
74	0xbe0a108c	-0.13482875
75	0xbc080e3f	-0.008304178
76	0xbc9d7ea6	-0.01922543
77	0xbd6a4037	-0.057190146
78	0x3c6aba1e	0.0143266
79	0xbd01c35b	-0.031680446
80	0xbd4f6a4e	-0.05063849
81	0x3ba4b028	0.0050258823
82	0x3cd1c503	0.025606638
83	0x3c76bc38	0.015059523
84	0x3e1b34f5	0.1515692
85	0xbd428aee	-0.047495775
86	0xbd3e8646	-0.046514772
87	0xbb1cbc77	-0.0023916045
88	0xbd27e806	-0.04099276
89	0x3c2c01b6	0.010498455
90	0x3d571490	0.052509844
91	0xbd15dede	-0.036589496
92	0xbd02e197	-0.03195342
93	0xbd8ef2f7	-0.069799356
94	0xbe2dadc5	-0.16960819
95	0x3db3927e	0.087681755
96	0xbd41c7b8	-0.047309607
97	0xbcd6b068	-0.026207164
98	0xbd2580eb	-0.04040615
99	0xbd2520a2	-0.040314324
100	0x3da42325	0.08014516
101	0xbcd41ec2	-0.025893573
102	0x3dd08db6	0.10183279
103	0xbbdec100	-0.0067979097
104	0xbd4bfd5b	-0.049802165
105	0xbd35ff02	-0.044432648
106	0x3e4f90d3	0.2027009
107	0xbc85fb02	-0.016355041
108	0x3d523204	0.05131723
109	0x3b7d7558	0.0038674679
110	0x3dbef111	0.093233235
111	0xbd7b8b79	-0.06141231
112	0x3cf445dc	0.029818468
113	0x3e15e742	0.14638999
114	0x3db492c0	0.08817053
115	0xbd44748a	-0.047962703
116	0x3da41b55	0.08013026
117	0x3da3db28	0.08000785
118	0xbdbfff6d	-0.093748905
119	0x3e0cedd8	0.13762605

fc2.weight f4 [84, 120]
0	0x3cc60ab1	0.02417502
1	0xbb1adc1b	-0.0023629728
2	0x3d798548	0.060918123
3	0x3ccdebd2	0.025136862
4	0x3cc40e46	0.023932587
5	0x3e01c8d8	0.12674272
6	0xbd9ae743	-0.07563641
7	0xbc9cfdfc	-0.019164078
8	0xbd9e1069	-0.07717974
9	0x3c141a18	0.009039424
10	0xbd17eebe	-0.037092917
11	0xbcf7b8b9	-0.03023945
12	0xbdd1edd8	-0.10250443
13	0xbc96ce72	-0.018408988
14	0xbd21b0e1	-0.039475325
15	0x3d0810bd	0.033219088
16	0x3c2ce293	0.010552066
17	0x3db2cf6d	0.087309696
18	0xbd685f69	-0.056731615
19	0xbdacfaef	-0.08446299
20	0x3d719fb5	0.0589902
21	0xbd19864d	-0.037481595
22	0x3d9281bc	0.07153651
23	0x3d2068b3	0.03916235
24	0xbdeab600	-0.11460495
25	0x3cfa21a7	0.030533625
26	0xbd831805	-0.06401066
27	0xbdb78460	-0.089607954
28	0x3d949a48	0.07255989
29	0x3cca053c	0.0246607
30	0xbd627e85	-0.05529644
31	0xbdaa4969	-0.08314783
32	0x3da167b5	0.07881109
33	0x3b1d7c23	0.002403029
34	0x3c9c1218	0.019051597
35	0xbd8c6198	-0.06854552
36	0x3d2c25b3	0.04202814
37	0xbca9075f	-0.020633398
38	0xbd18cb8c	-0.037303492
39	0xbdb83b88	-0.0899573
40	0xbd9807e0	-0.07423377
41	0xbdab96ee	-0.08378397
42	0x3cf6e0a7	0.03013642
43	0x3d2f8347	0.042849805
44	0xbca90c26	-0.020635676
45	0x3d9087db	0.070571624
46	0xbd2e8ed2	-0.042616673
47	0x3d2814f5	0.04103561
48	0xbcf27606	-0.029597294
49	0xbda44ff5	-0.08023063
50	0xbd0ec30e	-0.034853987
51	0x3d909f0a	0.07061584
52	0xbd7917f6	-0.060813867
53	0x3c2de990	0.010614768
54	0xbdc242ca	-0.09485395
55	0x3d9c6ebc	0.076383084
56	0x3d1188b9	0.03553078
57	0x3d067224	0.032823697
58	0x3d802bfe	0.06258391
59	0xbd2b9b88	-0.041896373
60	0x3d4db710	0.05022341
61	0x3cf167ba	0.029468406
62	0x3d6a9a8f	0.057276305
63	0xbdd6786d	-0.10472188
64	0xbdcd1f1e	-0.10015701
65	0xbd400754	-0.04688199
66	0x3d899cdc	0.06719372
67	0xbdab6525	-0.08368901
68	0xbda8c0f1	-0.08239926
69	0x3d3b7163	0.04576243
70	0xbd70193e	-0.058617823
71	0x3d40e33b	0.047091704
72	0x3c58c85a	0.013231361
73	0xbdbf31db	-0.09335681
74	0xbdb73d14	-0.089471966
75	0x3d11ae1d	0.035566438
76	0x3d263c58	0.040584892
77	0x3d625885	0.0552602
78	0x3d78cc5d	0.06074177
79	0xbd358f2b	-0.04432599
80	0xbda56706	-0.08076291
81	0xbcdf0fa9	-0.027229147
82	0x3d925e01	0.07146836
83	0xbcb60f18	-0.022223994
84	0x3d95e023	0.07318141
85	0xbd2f872d	-0.042853523
86	0xbca31b7e	-0.01991057
87	0xbd9c638b	-0.07636174
88	0x3d20937d	0.039203156
89	0xbdb688af	-0.08912789
90	0xbd38cf55	-0.045119602
91	0xbb0c137c	-0.0021373918
92	0xbc9d7f07	-0.01922561
93	0x3cf411e4	0.029793687
94	0x3cb75fb2	0.022384498
95	0x3d4db01f	0.05021679
96	0xbd745fba	-0.059661604
97	0xbd557fda	-0.052123882
98	0x3ca333fd	0.01992225
99	0xbd584ab1	-0.052805606
100	0x3d98af8f	0.0745536
101	0x3d577db1	0.052610103
102	0x3d365e01	0.044523243
103	0x3bc5fec6	0.0060423343
104	0xbd44d33d	-0.048053015
105	0xbc962912	-0.01833013
106	0xbd5e8b97	-0.054332342
107	0x3b9b4186	0.0047380356
108	0xbdc70a42	-0.097187534
109	0x3dbe8242	0.093021885
110	0x3d5f906b	0.054581087
111	0xbde93ed7	-0.11388939
112	0xba07d056	-0.0005180886
113	0x3d99a325	0.075018205
114	0x3c4f9894	0.012670655
115	0xbbd72bf2	-0.006566518
116	0xbd8e3fea	-0.069457844
117	0x3c0f9b5e	0.00876507
118	0xbb65efd5	-0.0035085578
119	0xbc0e3503	-0.008679631
120	0xbc974880	-0.018467188
121	0xbd89934d	-0.067175485
122	0xbae0b7a2	-0.0017144571
123	0xbc40a789	-0.0117586935
124	0x3cd2dfb8	0.025741443
125	0xbd8b56ea	-0.06803687
126	0x3d097bbb	0.033565264
127	0xbc643fc7	-0.013931221
128	0x3dbca4c8	0.09211117
129	0xbc98485d	-0.018589193
130	0x3d448124	0.04797472
131	0xbd13c635	-0.036077697
132	0x3cee5c8a	0.02909686
133	0xbdbd1c84	-0.092339545
134	0xbdfb1abf	-0.12260961
135	0xbbd1b985	-0.0064002895
136	0xbd58129f	-0.052752133
137	0x3df269bf	0.11836576
138	0xba31d864	-0.0006784259
139	0xbd62370e	-0.055228285
140	0xbde739b3	-0.11290302
141	0xbdb22a47	-0.0869947
142	0x3cd40941	0.025883319
143	0xbce84aa7	-0.02835591
144	0x3cb99bd4	0.022657312
145	0x3ce5e38d	0.028062606
146	0x3d2a8743	0.041632902
147	0x3d7cb3ce	0.061694913
148	0xbdd87c9b	-0.105706416
149	0x3d5f0781	0.054450516
150	0x3db209fe	0.08693312
151	0xbdaf30ed	-0.08554254
152	0xbd8824b1	-0.06647623
153	0x3d23c2a3	0.039980542
154	0xbd7f6927	-0.06235614
155	0xbdb2d675	-0.08732311
156	0xbd3bd160	-0.045853972
157	0x3d32af65	0.0436243
158	0x3d534c88	0.051586658
159	0xbd84e61b	-0.06489202
160	0xbcbdc98a	-0.02316739
161	0x3c493ba1	0.012282283
162	0x3d386577	0.04501864
163	0x3c8fc03a	0.017547715
164	0x3daf7a93	0.08568301
165	0x3e045348	0.12922394
166	0xbd729bed	-0.059230734
167	0xbd5230d9	-0.051316116
168	0xbdac5522	-0.08414675
169	0x3e26e502	0.16298297
170	0x3b88425d	0.0041583017
171	0x3bd90dde	0.0066239676
172	0xbde54836	-0.11195414
173	0x3dc1f69c	0.09470865
174	0xbd6663fe	-0.056247704
175	0xbcffc733	-0.031222915
176	0xbd87b13e	-0.06625603
177	0xbcae9ebe	-0.021315929
178	0x3c1d9d12	0.009619968
179	0xbd500aaf	-0.05079144
180	0x3dcc20c8	0.0996719
181	0xbc4ca999	-0.012491607
182	0xbc8d772c	-0.01726874
183	0x3e2a5dc0	0.16637325
184	0xbcd716cf	-0.026255993
185	0xbdd92a06	-0.106037185
186	0xbdbc7f57	-0.09203976
187	0x3cd7e12b	0.026352486
188	0x3c757a6f	0.014982804
189	0xbe05dbdf	-0.13072155
190	0x3c62ab34	0.013834763
191	0xbd8925e4	-0.0669668
192	0x3cc85dba	0.024458755
193	0x3dafedfa	0.08590312
194	0xbd47a692	-0.04874284
195	0xbd2a42ce	-0.041567616
196	0x3d0d524a	0.034502305
197	0x3d197dc0	0.03747344
198	0x3d5983a6	0.053104065
199	0x3d38a266	0.04507675
200	0xbc2f53b0	-0.010701105
201	0xbda8b29b	-0.08237191
202	0x3d7db916	0.06194409
203	0x3c80c193	0.015717303
204	0xbe336246	-0.17517957
205	0x3db844ee	0.08997522
206	0x3d803505	0.06260113
207	0x3ca8906a	0.020576674
208	0x3d3d7d93	0.046262335
209	0x3d36892d	0.044564415
210	0xbc13994c	-0.009008717
211	0x39f819a8	0.00047321361
212	0x3da8d3a8	0.08243495
213	0x3d867f24	0.06567219
214	0x3e27730f	0.16352485
215	0xbddb253d	-0.10700462
216	0xbdb95775	-0.09049884
217	0x3d4db8a4	0.050224915
218	0xbc0c392a	-0.008558551
219	0x3d9091cc	0.070590585
220	0xbc97e3ab	-0.018541178
221	0x3d78dcf1	0.06075758
222	0x3c72972c	0.01480655
223	0x3be948d6	0.0071192784
224	0x3d2d9fa8	0.04238859
225	0x3df0bee0	0.117551565
226	0x3d133a0a	0.035944022
227	0xbd02d0f5	-0.03193756
228	0xbd2e6f55	-0.042586643
229	0xbdccc512	-0.09998526
230	0x3c08e7fe	0.0083560925
231	0xbd7e87b0	-0.06214112
232	0xbe0eb700	-0.13936996
233	0xbd88c12b	-0.06677469
234	0xbe06970a	-0.13143554
235	0x3d656b4e	0.056010537
236	0x3d7fe670	0.06247562
237	0x3b17c72b	0.0023159485
238	0x3d1fe603	0.039037716
239	0xbc4fbb74	-0.01267897
240	0x3de03ddc	0.10949299
241	0x3cc2ba86	0.023770582
242	0xbdb82023	-0.089905046
243	0xbd3c143a	-0.045917727
244	0x3deb931e	0.1150267
245	0x3d04db09	0.03243545
246	0x3da507f6	0.08058159
247	0x3d29050b	0.041264575
248	0xbd41de6c	-0.04733126
249	0xbd61ff7b	-0.055175286
250	0xbd0a3d78	-0.033750027
251	0xbdc235c9	-0.09482915
252	0xbd23dcbb	-0.040005427
253	0x3d117b87	0.035518195
254	0x3d98677b	0.07441612
255	0x3bff9869	0.007800151

fc2.bias f4 [84]
0	0xbcdf2b50	-0.027242333
1	0x3cc456b5	0.023967126
2	0x3deaa154	0.11456552
3	0x3e1228ee	0.14273426
4	0xbcc72866	-0.024311256
5	0x3e071dcc	0.1319496
6	0x3e1ba489	0.15199484
7	0xbe071842	-0.13192847
8	0x3cccbe98	0.024993226
9	0x3e3f4b0b	0.1868097
10	0x3e19f2ac	0.15033978
11	0x3be1b4b7	0.006887998
12	0x3d9736bd	0.073834874
13	0x3eae44ef	0.34036967
14	0xbcca1f32	-0.024673078
15	0x3d3afbc8	0.045650274
16	0xbd4a4535	-0.049382407
17	0xbbc90c49	-0.0061354977
18	0x3cc64b1a	0.024205733
19	0x3d1ace02	0.03779412
20	0x3c9055a3	0.01761896
21	0x3e9e5933	0.3092743
22	0x3e8868ed	0.26642552
23	0x3dfda2b1	0.123845465
24	0xbd5ffa7a	-0.054682232
25	0xbd01cd8e	-0.031690173
26	0x3d0d43b4	0.034488395
27	0x3db3db9a	0.0878212
28	0x3dc10cad	0.09426246
29	0x3e2719b2	0.16318396
30	0xbda8d8f4	-0.082445055
31	0x3e66b3ea	0.2252957
32	0x3cfb36da	0.030665804
33	0xbbd1b4cc	-0.0063997265
34	0x3e3cc429	0.18434204
35	0xbd815e86	-0.06316857
36	0x3e3a44e0	0.18190336
37	0xbdada515	-0.084787525
38	0x3d2ca8bd	0.04215311
39	0x3e66d94a	0.22543827
40	0xbbfdff61	-0.007751391
41	0x3d7d9884	0.06191303
42	0xbd9ea163	-0.07745626
43	0x3c3357b3	0.010946202
44	0x3d90278b	0.07038792
45	0x3d8a19a8	0.06743175
46	0xbd8a5575	-0.06754581
47	0xbc1e8b8f	-0.009676828
48	0x3e4e8ab1	0.20170094
49	0xbccb6465	-0.024828145
50	0xbe034d41	-0.12822439
51	0x3d12c7e8	0.035835177
52	0xbd518420	-0.051151395
53	0x3c901978	0.01759027
54	0x3ecbc138	0.39795852
55	0xbd859812	-0.06523146
56	0xbd908d58	-0.07058209
57	0xbdd3bc7e	-0.103386864
58	0xbc9266ce	-0.017871287
59	0x3dabedbb	0.08394953
60	0x3e05343e	0.1300821
61	0xbd57a431	-0.05264682
62	0x3e0c6628	0.13710845
63	0x3ccaa6e3	0.02473778
64	0x3cf23639	0.029566871
65	0xbd6f3fad	-0.058410335
66	0x3b934e17	0.004495393
67	0x3e187a1b	0.1489033
68	0xbd98e652	-0.07465805
69	0x3dc9e42d	0.09857974
70	0x3c9120dd	0.017715866
71	0xbda1c5f7	-0.07899087
72	0xbcd2e3e1	-0.025743427
73	0x3e255c18	0.16148412
74	0x3ca14a73	0.01968882
75	0x3de8a715	0.11359993
76	0x3ec3a61f	0.38212678
77	0xbd87d4b7	-0.06632369
78	0xbd2e7446	-0.042591356
79	0x3d4fd8d5	0.050743897
80	0xbbe03365	-0.006842064
81	0xbd8a48c9	-0.06752164
82	0xbd8e65ec	-0.06953034
83	0x3e91d01b	0.28479084

fc3.weight f4 [10, 84]
0	0xbcc182de	-0.023621973
1	0xbbd4c4b7	-0.006493177
2	0xbddd2bf0	-0.10799396
3	0x3e50a235	0.20374377
4	0x3d9dbb26	0.07701711
5	0x3c27d3f3	0.010243404
6	0xbce56ce7	-0.02800603
7	0xbd4b0c58	-0.04957232
8	0xbe11a021	-0.1422124
9	0x3e43e14d	0.19128914
10	0xbe0e86c5	-0.13918598
11	0xbd8524f2	-0.065011874
12	0x3dabc3cb	0.08386954
13	0x3ea4aaad	0.32161465
14	0xbe16c634	-0.14724046
15	0x3d31b2a4	0.043383256
16	0xbcf45247	-0.02982439
17	0x3c6fca0b	0.014635573
18	0xbd3e1f28	-0.04641643
19	0x3d10a5ea	0.035314478
20	0xbdb9b2d2	-0.090673104
21	0xbe0b60f6	-0.13611206
22	0xbd7f72de	-0.062365405
23	0x3dd70ed8	0.10500878
24	0x3d8bbe39	0.068233915
25	0xbc6be97b	-0.014398928
26	0xbe2858cc	-0.16440123
27	0x3d3276ab	0.0435702
28	0x3e2c9f0d	0.16857548
29	0x3e34e96e	0.17667171
30	0xbdb77855	-0.089584984
31	0xbb955edb	-0.004558427
32	0x3e227e5a	0.15868512
33	0x3e3cd694	0.1844123
34	0x3dfa66e5	0.12226657
35	0xbd249174	-0.040177777
36	0x3e1eba49	0.1550075
37	0x3cdcf74e	0.026973393
38	0x3dbbf5ac	0.091777176
39	0xbd5afca6	-0.0534636
40	0xbda8d7e3	-0.08244302
41	0x3d696404	0.056980148
42	0x3ca20843	0.01977933
43	0x3eaf6aab	0.3426107
44	0xbdf3c28d	-0.11902342
45	0xbd4b5898	-0.049645036
46	0xbd684c2b	-0.056713264
47	0xbd257cf3	-0.040402364
48	0x3df096c8	0.11747509
49	0x3e04cf49	0.12969698
50	0x3e1142f7	0.14185701
51	0xbe171faa	-0.14758173
52	0xbc55d2b5	-0.013050725
53	0x3e411059	0.18853892
54	0xbea7d78f	-0.32781646
55	0x3dc1cb34	0.09462586
56	0x3ceb31ba	0.028710235
57	0xbe2f6cf7	-0.1713141
58	0xbdd5396a	-0.104113415
59	0xbcb0a11b	-0.021561196
60	0x3e068eef	0.13140462
61	0x3dcd82ef	0.10034739
62	0x3dae78f6	0.08519165
63	0x3c8964e0	0.016771734
64	0xbcf54d4f	-0.02994409
65	0x3dfff6f7	0.12498277
66	0x3e2e1cef	0.17003225
67	0xbe68b7da	-0.22726384
68	0x3c48e2a6	0.012261068
69	0x3d486d59	0.048932407
70	0x3c0bb152	0.008526163
71	0x3e65ef3a	0.22454539
72	0xbd7bc750	-0.061469376
73	0x3e999271	0.29994538
74	0xbd260713	-0.04053409
75	0xbcef7889	-0.02923228
76	0xbe8d54b7	-0.27603695
77	0xbe0307af	-0.127959
78	0xbdc03a33	-0.093861006
79	0xbdd4c0be	-0.10388325
80	0xbdb80731	-0.08985747
81	0xbbd6886a	-0.0065470235
82	0xbe00453f	-0.12526415
83	0xbcf3eca9	-0.029775934
84	0xbd67086e	-0.056404524
85	0x3d4cfbcf	0.05004483
86	0x3d3f616e	0.046723776
87	0x3e61f294	0.22065192
88	0x3cfe2359	0.031022714
89	0xbe12170c	-0.14266604
90	0xbe3752da	-0.17902699
91	0xbaef010a	-0.0018234563
92	0xbdabb87c	-0.08384797
93	0xbcc75922	-0.024334494
94	0xbddf3c68	-0.109001935
95	0x3e70f5ef	0.23531316
96	0xbb47bfc0	-0.0030479282
97	0xbd960cc4	-0.073266536
98	0x3c914214	0.017731704
99	0x3db3453a	0.08753438
100	0x3d50dc80	0.050991535
101	0x3d6f436f	0.05841392
102	0x3c565d14	0.013083715
103	0xbe379a22	-0.17929891
104	0xbc63b84b	-0.013898919
105	0xbdc6681b	-0.09687825
106	0xbdf7449b	-0.12073632
107	0xbd48775d	-0.04894196
108	0xbcddbadd	-0.027066642
109	0xbe167da1	-0.14696361
110	0xbd21a939	-0.039468024
111	0x3c97b3ed	0.018518412
112	0x3ca7172c	0.020396791
113	0x3d8ba393	0.06818309
114	0xbdc15136	-0.09439318
115	0x3e05cbae	0.13065979
116	0xbd9745ef	-0.07386386
117	0xbd968fa1	-0.07351614
118	0xbc7b08f1	-0.015321956
119	0xbdb4f93e	-0.08836602
120	0x3d43fd3a	0.047848918
121	0x3e016f58	0.1264013
122	0x3e8f241f	0.27957246
123	0xbde71081	-0.11282445
124	0xbdc95e71	-0.098324664
125	0x3d10fa48	0.035394937
126	0xbde4d7c9	-0.1117397
127	0xbdcc7005	-0.099823035
128	0xbdbc9a93	-0.0920917
129	0xbe65f73a	-0.2245759
130	0xbc3fd33a	-0.011708075
131	0xbccd4596	-0.025057595
132	0xbdc5b0c9	-0.0965286
133	0x3e990bda	0.29891855
134	0xbd83c47e	-0.06433962
135	0x3d1e5dd1	0.03866369
136	0x3d34c93c	0.044137225
137	0x3e101331	0.14069821
138	0xbdc5b548	-0.09653717
139	0xbba79dcf	-0.005115248
140	0x3da9360e	0.08262263
141	0x3e8bc976	0.2730214
142	0x3db378c8	0.087632716
143	0x3d77e19e	0.0605179
144	0x3d2ef867	0.042717364
145	0x3dc0732e	0.09396969
146	0xbe7cd1bd	-0.24689384
147	0x3d360a74	0.044443563
148	0xbde1fe78	-0.11034864
149	0x3eacfffe	0.33789057
150	0x3d21082c	0.039314434
151	0xbd9a8d7f	-0.075465195
152	0xbd8c1dac	-0.06841597
153	0xbd95bb14	-0.07311073
154	0x3d988822	0.0744784
155	0xbd9e3d70	-0.07726562
156	0xbc231b9d	-0.009955314
157	0xbe501003	-0.20318608
158	0x3e8536c6	0.2601835
159	0x3d55d55c	0.05220543
160	0xbe631bf0	-0.22178626
161	0xbe107dfc	-0.14110559
162	0x3db4e19a	0.088320926
163	0x3dfd3af1	0.12364758
164	0xbd1d0608	-0.03833583
165	0x3e40ac9e	0.18815848
166	0xbe0eac1e	-0.13932845
167	0xbec52cae	-0.3851065
168	0xbcddfcdf	-0.027098117
169	0xbde8dbda	-0.11370058
170	0xbc0d4a44	-0.008623663
171	0xbe44a3f6	-0.19203171
172	0xbd289553	-0.04115803
173	0x3b9589dc	0.0045635533
174	0xbd20ede3	-0.039289366
175	0x3d478c2a	0.048717655
176	0x3ceaf4e6	0.02868123
177	0x3ded0eb7	0.11575072
178	0xbde6bc9f	-0.11266445
179	0xbd282d75	-0.041058976
180	0x3da1fae8	0.07909185
181	0x3dd67db9	0.104731984
182	0x3ddd0beb	0.10793289
183	0xbdf4ffe3	-0.11962869
184	0xbd4b5d14	-0.049649313
185	0xbe21d59b	-0.1580414
186	0x3d0570b9	0.032578204
187	0x3dd06391	0.10175241
188	0x3e1d3200	0.15351105
189	0x3e8cbb5a	0.27486688
190	0x3d9f35cd	0.077739336
191	0xbe272359	-0.16322078
192	0x3d9dd8b2	0.07707347
193	0x3d81e63f	0.06342744
194	0xbd11c337	-0.035586562
195	0x3d9cd37f	0.07657527
196	0x3dc21734	0.09477082
197	0x3ddceb96	0.10787122
198	0xbdad0f09	-0.08450133
199	0xbdb244e0	-0.08704543
200	0xbcdd1df3	-0.02699182
201	0x3e726269	0.23670353
202	0x3d2eebb0	0.042705238
203	0xbd0feb5f	-0.035136577
204	0x3b84a52e	0.0040480113
205	0xbd5ce60e	-0.053930335
206	0xbd9f932c	-0.07791743
207	0x3d9299a2	0.071582094
208	0x3d18abaf	0.037273105
209	0xbd3915a4	-0.045186654
210	0x3d983954	0.074328095
211	0x3c67b114	0.01414134
212	0x3dff7af3	0.124746226
213	0x3d02a15e	0.031892173
214	0xbdcefb1f	-0.10106491
215	0x3d33f95e	0.043938987
216	0x3e7ccf65	0.2468849
217	0xbe00dbdb	-0.12583868
218	0xbd839b09	-0.06426055
219	0xbe3d983e	-0.18515107
220	0xbde8b1fc	-0.11362073
221	0xbda57024	-0.0807803
222	0x3db5a046	0.0886846
223	0x3c5bc332	0.013413237
224	0xbd6fb513	-0.058522295
225	0xbe54a452	-0.20765808
226	0xbd64388e	-0.055717997
227	0x3e66330e	0.22480413
228	0xbda2679c	-0.07929918
229	0x3df43768	0.119246304
230	0x3e1386ed	0.14406939
231	0x3d982c3c	0.07430312
232	0x3cc7098f	0.02429655
233	0x3c338de3	0.010959121
234	0x3dad7830	0.084701896
235	0x3e422f37	0.18963324
236	0xbd1f458e	-0.038884692
237	0xbd096949	-0.033547673
238	0xbc12383c	-0.00892454
239	0x3d91f337	0.07126468
240	0xbc85d405	-0.01633645
241	0x3e1e28bb	0.15445225
242	0xbd4bba9a	-0.049738504
243	0xbd08ac42	-0.033367403
244	0x3dc3cfd1	0.09561122
245	0x3d462096	0.04837092
246	0x3dccbb71	0.09996689
247	0xbe1f65e9	-0.1556622
248	0x3d32563d	0.043539274
249	0xbcae9bbd	-0.021314496
250	0x3dc4bcdf	0.09606337
251	0x3e93f00a	0.28894073
252	0xbd8e58a2	-0.06950499
253	0xbdfc3e68	-0.123165905
254	0xbe1a7146	-0.15082273
255	0xbe00ff36	-0.12597355

fc3.bias f4 [10]
0	0xbddddf89	-0.108336516
1	0xbedc58ca	-0.4303649
2	0x3dbb2ed4	0.09139791
3	0x3e86b594	0.26310408
4	0x3e9d6b57	0.30745956
5	0xbe265b03	-0.16245656
6	0x3d32b397	0.0436283
7	0xbe84d134	-0.2594086
8	0x3f101f28	0.5629754
9	0xbe924173	-0.2856556
